src/client/autoencoder.pth (torch, 13767 bytes, 12 tensors)

encoder.0.weight f4 [32, 13]
-0.21123326 -0.25212982 -0.00437845 -0.028907847 -0.2614823 0.2543031 -0.06563282 0.22254445
-0.119296834 -0.2728724 0.028035283 -0.123597294 0.10774499 -0.009885222 0.19966725 0.068345934
0.2439911 -0.08634637 -0.11008559 0.05810529 0.19803324 -0.18326041 0.08463028 -0.11908299
0.17481002 -0.120556 -0.3748916 -0.084519364 0.21063828 -0.645485 -0.54537916 -0.3665886
-0.22245072 -0.1806418 -0.44001067 0.08383885 -0.20912676 -0.21188863 -0.33637446 -0.102656215
0.28441852 0.25206998 -0.0082725845 0.06945975 0.25099137 0.13299283 0.25029022 -0.18670727
0.088963136 0.26502815 0.11136105 0.20916355 0.15993242 0.39535445 0.2963032 -0.021100294
-0.097954676 -0.120496 -0.06656329 -0.113458775 0.13499008 -0.1136715 -0.08551151 -0.27915022
-0.28515294 -0.19649968 -0.08808103 0.24626538 -0.08994052 -0.18568304 -0.13691533 -0.12719496
0.16551936 -0.029736936 -0.08894861 -0.0565577 -0.08389999 0.15829358 -0.2970881 0.24736664
0.1550603 -0.36807024 -0.23369654 -0.21050403 0.0010240624 -0.1561771 -0.47396114 0.030490274
0.09667006 -0.2457915 -0.0455479 0.30701032 -0.16393961 -0.01337429 -0.104934014 0.31346917
0.1669207 0.21098034 0.13390568 0.18994014 -0.08743604 -0.1467363 0.16620474 0.06230679
0.22127017 -0.09645733 0.011066715 0.12709385 0.05215425 -0.14581814 -0.26473892 -0.07557623
0.13266015 0.1560876 -0.14035411 -0.1596218 -0.23279926 -0.17211124 0.040622693 -0.01031251
-0.12683614 -0.1956929 -0.07322864 0.19386102 -0.30251506 -0.27896616 -0.25186265 0.16799223
-0.02447828 -0.35059428 -0.2707991 -0.13587113 -0.26028654 0.21818459 -0.13725507 -0.011597186
0.08098823 0.16510588 -0.089287326 -0.113192126 -0.19357535 0.05590549 -0.26573613 0.119784564
-0.26403555 -0.25190157 -0.10089645 0.18470085 0.16466126 -0.1387254 0.04568681 -0.2533856
-0.1874136 0.19468096 -0.26872337 0.029226571 -0.13009416 -0.007937641 0.17586184 0.13969351
0.03811314 0.02174952 0.03232978 -0.2739639 -0.21519102 -0.22654144 0.110175736 0.23419292
-0.09892084 -0.28489533 -0.070523724 0.2589055 -0.11291964 0.06276412 -0.104164116 0.12605916
0.118777014 -0.315606 -0.071338415 0.33809912 0.053614434 -0.34788328 0.12558094 0.3202539
0.21028969 0.17841484 0.1803122 0.10848268 -0.27537915 0.14151314 0.018249465 -0.096575305
0.14051908 -0.13997988 0.04996076 0.13911836 0.2936836 -0.08593913 -0.16462061 0.20226014
0.041106436 0.24935542 -0.0183078 0.060091272 0.28871375 -0.2678197 0.2748413 -0.22467647
0.00952414 0.04837696 0.044595454 0.041602552 -0.27122775 -0.05582981 -0.0064475895 0.12784564
-0.14328234 0.19826062 -0.05736181 -0.1326926 -0.1427064 -0.38036984 0.10623477 0.08820359
-0.3146246 -0.46620852 -0.3496671 0.09690125 -0.029136358 -0.08721297 0.17297962 0.20354606
0.06615153 -0.14377093 0.20780855 0.4286174 0.3227056 -0.1053908 -0.080463745 -0.07933189
0.15192379 0.19547616 -0.0042271717 -0.056350656 0.19311741 -0.08671415 -0.06529819 -0.08018975
-0.22031523 -0.27787626 -0.010768153 0.06055894 0.19906843 -0.1374219 0.009358678 0.13583414
00000000: 884d 58be 2917 81be 1a79 8fbb 26d0 ecbc
00000010: 02e1 85be 0434 823e 806a 86bd b1e2 633e
00000020: e651 f4bd eeb5 8bbe 40aa e53c 9420 fdbd
00000030: 68a9 dc3d a0f5 21bc 9275 4c3e f4f8 8b3d
00000040: ced8 793e 5ed6 b0bd 8e74 e1bd d0ff 6d3d
00000050: 3ac9 4a3e 9ea8 3bbe a452 ad3d c8e1 f3bd
00000060: 6601 333e 10e6 f6bd cbf1 bfbe 7d18 adbd
00000070: 90b1 573e 813e 25bf f89d 0bbf 80b1 bbbe
00000080: 1fca 63be 2afa 38be 1449 e1be b4b3 ab3d
00000090: 5325 56be 55f9 58be 4639 acbe 6c3d d2bd
000000a0: 4e9f 913e 510f 813e bc89 07bc ea40 8e3d
000000b0: f181 803e 462f 083e 0a26 803e 3130 3fbe
000000c0: 4e32 b63d c5b1 873e 4311 e43d f82e 563e
000000d0: 53c5 233e e66b ca3e 0eb5 973e 86da acbc
000000e0: 769c c8bd 9bc6 f6bd 5652 88bd 135d e8bd
000000f0: d73a 0a3e 9acc e8bd a920 afbd c7ec 8ebe
00000100: 91ff 91be 3637 49be d463 b4bd fe2c 7c3e
00000110: bc32 b8bd b223 3ebe 8833 0cbe 653f 02be
00000120: e87d 293e e09a f3bc b02a b6bd 0ca9 67bd
00000130: c2d3 abbd b617 223e ee1b 98be ae4d 7d3e
00000140: 21c8 1e3e b473 bcbe 254e 6fbe 5e8e 57be
00000150: d539 863a e4ec 1fbe 09ab f2be bdc6 f93c
00000160: f4fa c53d c4b0 7bbe 6f90 3abd 7530 9d3e
00000170: c9df 27be d71f 5bbc a5e7 d6bd 087f a03e
00000180: 43ed 2a3e 3b0b 583e 921e 093e ab7f 423e
00000190: ab11 b3bd 0a42 16be 9331 2a3e 6835 7f3d
000001a0: a694 623e 6c8b c5bd 2b51 353c e424 023e
000001b0: b29f 553d 5a51 15be dc8b 87be b6c7 9abd
000001c0: 10d8 073e 6ed5 1f3e fdb8 0fbe e673 23be
000001d0: ee62 6ebe ee3d 30be fb63 263d cdf5 28bc
000001e0: 55e1 01be b863 48be e6f8 95bd 8183 463e
000001f0: 41e3 9abe a7d4 8ebe 24f4 80be 2806 2c3e
00000200: ad86 c8bc 1881 b3be 2ea6 8abe cd21 0bbe
00000210: 4744 85be c86b 5f3e 988c 0cbe 2002 3ebc
00000220: 28dd a53d 8411 293e 46dc b6bd 46d1 e7bd
00000230: 9e38 46be 28fd 643d 910e 88be 9c51 f53d
00000240: ab2f 87be 3ef9 80be cca2 cebd 3822 3d3e
00000250: f69c 283e 080e 0ebe 1822 3b3d c2bb 81be
00000260: 5ae9 3fbe 725a 473e 1c96 89be 906c ef3c
00000270: 6737 05be e10c 02bc 2015 343e d10b 0f3e
00000280: 861c 1c3d 0d2c b23c 3b6c 043d ff44 8cbe
00000290: 095b 5cbe 7bfa 67be d1a3 e13d 45d0 6f3e
000002a0: 0297 cabd cddd 91be be6e 90bd 438f 843e
000002b0: 6a42 e7bd 7a8a 803d ff53 d5bd a715 013e
000002c0: 5d41 f33d 1c97 a1be e019 92bd 541b ad3e
000002d0: cf9a 5b3d c21d b2be 4a98 003e 52f8 a33e
000002e0: 2e56 573e 61b2 363e c3a3 383e 2b2c de3d
000002f0: 7ffe 8cbe d2e8 103e e77f 953c 46c9 c5bd
00000300: 3ce4 0f3e e356 0fbe a7a3 4c3d 0b75 0e3e
00000310: b25d 963e db00 b0bd 4e92 28be 481d 4f3e
00000320: 395f 283d 0757 7f3e 3dfa 95bc 4422 763d
00000330: 4ad2 933e aa1f 89be 00b8 8c3e 9711 66be
00000340: 230b 1c3c eb26 463d b9a9 363d 7067 2a3d
00000350: 5dde 8abe cdad 64bd 4d46 d3bb f8e9 023e
00000360: 9bb8 12be d504 4b3e 38f4 6abd 92e0 07be
00000370: a021 12be d6bf c2be 9d91 d93d 15a4 b43d
00000380: 7a16 a1be e2b2 eebe 9107 b3be 2a74 c63d
00000390: 5faf eebc b79c b2bd 9221 313e 616e 503e
000003a0: 747a 873d b038 13be c4cb 543e bd73 db3e
000003b0: ab39 a53e 22d7 d7bd 2dca a4bd c278 a2bd
000003c0: e991 1b3e e72a 483e 1684 8abb f2cf 66bd
000003d0: 92c0 453e 3097 b1bd 0fbb 85bd 863a a4bd
000003e0: 519a 61be cc45 8ebe e86c 30bc a70c 783d
000003f0: 98d8 4b3e 54b8 0cbe 2455 193c 1b18 0b3e

encoder.0.bias f4 [32]
-0.11585152 -0.26451677 0.26466706 0.14773788 0.018626891 -0.27695656 0.36509937 0.015286425
-0.29154322 0.28831005 -0.14452843 -0.17488906 -0.22275549 0.060579408 0.42222542 0.34525156
0.27913395 0.2692567 0.44958577 -0.058149595 0.24973106 0.38778165 -0.18313724 -0.2532395
0.026287094 0.120226696 -0.16267517 0.33986732 0.011477775 0.31805116 -0.07106098 0.0053855004
00000000: 9043 edbd be6e 87be 7182 873e 9948 173e
00000010: 6c97 983c 40cd 8dbe 4eee ba3e ea73 7a3c
00000020: 2745 95be 609d 933e 43ff 13be 1e16 33be
00000030: 041a 64be 1d22 783d ee2d d83e d0c4 b03e
00000040: a5ea 8e3e 04dc 893e 1b30 e63e 452e 6ebd
00000050: 80b9 7f3e 518b c63e 5488 3bbe 9ca8 81be
00000060: 0858 d73c 6a39 f63d 5294 26be 1703 ae3e
00000070: 470d 3c3c 9ad7 a23e 6b88 91bd da78 b03b

encoder.2.weight f4 [16, 32]
0.044418402 -0.1532016 0.09391955 0.36408055 0.0034957146 0.075878814 0.042698275 -0.15804192
0.15259856 0.03290161 0.12921123 -0.015958816 -0.11511126 0.11202066 0.0948391 0.023092948
0.08015569 0.3274563 0.19213799 -0.016281506 0.13619429 0.16239063 -0.010735641 -0.013606682
0.15791823 0.12996808 -0.018072352 0.36853424 -0.19125834 0.3355353 -0.0037362424 0.07985654
-0.17659514 0.06541531 0.19925717 0.18953961 0.23577304 0.114413634 0.09525553 -0.10703695
0.018711248 0.11796666 -0.1503706 -0.10984497 0.024483986 0.30445644 0.19126491 0.05384722
0.018527433 0.011331522 0.30764532 -0.0059226057 0.3036699 0.02098812 0.051944647 -0.16374502
0.13276029 -0.005257774 0.025513276 0.14738907 0.07304693 0.075039625 0.08689082 0.1420943
-0.030770045 0.13147782 0.0075546526 -0.086001635 0.010589323 -0.17016657 -0.17082754 -0.14660284
-0.012701094 -0.16935074 -0.16454484 0.05968082 -0.08690505 -0.1851719 0.093544 0.12497383
-0.14421462 -0.084468946 0.0845726 0.12572096 0.028957913 0.044266194 0.14086978 -0.12240364
0.10035701 0.28815696 0.0023983866 0.10162934 0.004051399 -0.19132175 -0.17605385 -0.12556957
-0.090379596 0.044297308 -0.028972715 0.066030964 -0.15654026 0.14151798 0.08943562 0.10819341
-0.013577059 0.08785625 0.063883364 0.06395933 -0.058387198 0.06386547 -0.07072589 0.043775562
0.13513654 0.017945042 0.022071771 0.1472819 0.073933996 -0.13875234 0.04295609 0.15808494
-0.1271129 0.058377318 -0.13707885 -0.12906744 -0.045688074 -0.1466966 -0.08244796 0.09264285
-0.07690347 0.094541535 0.07565834 -0.25003472 0.000851739 0.07004124 0.07478414 -0.010205214
-0.06804109 -0.17151552 -0.083825655 -0.13559276 0.13568579 -0.137345 -0.14446235 -0.26475433
0.08143924 0.08068219 -0.06949561 -0.20044996 -0.05886777 0.058956854 -0.15682933 0.13679351
0.103064254 -0.0631829 -0.0007273555 -0.13230184 -0.008233714 -0.086020805 0.017463962 0.10949513
-0.092105016 0.14910011 0.05224923 0.25973707 0.3009996 0.018401012 0.24365722 -0.1080264
-0.03196105 0.24677895 0.13529451 0.040364668 -0.040364277 0.40716776 0.21588995 0.33185807
0.25571227 0.11321411 0.30696264 -0.110742055 0.27088597 0.23852651 -0.019245794 0.11840974
0.15298778 0.32554087 0.04619807 0.12940635 0.07711332 0.02534701 -0.06415716 -0.20371695
-0.15633024 -0.0057016313 -0.36371568 -0.111170836 0.2540562 -0.0055134594 -0.16279045 -0.05616852
-0.03704906 -0.28896722 -0.026395962 -0.121264 -0.0984864 -0.13221876 -0.048572376 0.2301951
0.048457105 0.17977202 0.20161699 -0.15311077 0.0461748 0.028958071 -0.14317533 -0.14662732
0.17658909 0.28912857 -0.15820521 0.15116325 -0.043745194 -0.21338949 -0.05739893 -0.23885003
-0.026407093 -0.1291045 0.080733016 0.33957106 0.1683541 -0.14670739 0.21629044 -0.123747855
-0.08769932 0.18398085 -0.16462675 -0.14902416 0.11243423 0.4296887 0.27352333 0.20511259
0.1737625 0.16006342 0.32028636 0.14600272 0.27186313 0.20054586 0.047301244 -0.013041645
-0.098741144 0.24042588 -0.086027384 0.3658238 0.14775516 0.1620335 0.0031210291 -0.03267069
00000000: 12f0 353d e1e0 1cbe e558 c03d c468 ba3e
00000010: 5c18 653b 5a66 9b3d 63e4 2e3d bed5 21be
00000020: cc42 1c3e d7c3 063d f34f 043e 10bc 82bc
00000030: 74bf ebbd 166b e53d 013b c23d 6c2d bd3c
00000040: ab28 a43d 5aa8 a73e d2bf 443e cb60 85bc
00000050: 8476 0b3e bb49 263e 8be4 2fbc 90ee 5ebc
00000060: 51b5 213e 5a16 053e 780c 94bc 85b0 bc3e
00000070: 3ad9 43be 48cb ab3e bfdb 74bb d38b a33d
00000080: 5bd5 34be 76f8 853d 120a 4c3e ac16 423e
00000090: 7d6e 713e b251 ea3d 5515 c33d 3036 dbbd
000000a0: 5548 993c 8198 f13d c0fa 19be 66f6 e0bd
000000b0: a492 c83c b7e1 9b3e f3da 433e e78e 5c3d
000000c0: d8c6 973c d9a7 393c b083 9d3e 6b12 c2bb
000000d0: 9f7a 9b3e 47ef ab3c e9c3 543d c6ac 27be
000000e0: 50f2 073e 6849 acbb 3801 d13c 29ed 163e
000000f0: a199 953d 60ae 993d d0f3 b13d 2b81 113e
00000100: 7611 fcbc 1fa2 063e 058d f73b a021 b0bd
00000110: d77e 2d3c 2540 2ebe 6aed 2ebe 0e1f 16be
00000120: 4018 50bc 486a 2dbe 717e 28be e073 743d
00000130: 46fb b1bd b49d 3dbe ff93 bf3d 48f2 ff3d
00000140: ffac 13be 0efe acbd 6634 ad3d ffbc 003e
00000150: 2539 ed3c 7850 353d 2b40 103e c2ae fabd
00000160: fa87 cd3d 4f89 933e 402e 1d3b 0b23 d03d
00000170: 99c1 843b d9e9 43be 7647 34be 4f95 00be
00000180: f018 b9bd 1871 353d 3058 edbc 3e3b 873d
00000190: 174c 20be 17ea 103e 062a b73d 8294 dd3d
000001a0: 5072 5ebc faed b33d 48d5 823d 1cfd 823d
000001b0: 6a27 6fbd e6cb 823d bcd8 90bd 014e 333d
000001c0: 3c61 0a3e 7b01 933c dccf b43c 11d1 163e
000001d0: b56a 973d 1815 0ebe baf2 2f3d 05e1 213e
000001e0: e229 02be 0e1d 6f3d 665e 0cbe 412a 04be
000001f0: 6b23 3bbd a237 16be 7ada a8bd 89bb bd3d
00000200: 917f 9dbd fe9e c13d c2f2 9a3d 8d04 80be
00000210: 3d47 5f3a c871 8f3d 6d28 993d c533 27bc
00000220: 2159 8bbd c4a1 2fbe c9ac abbd d4d8 0abe
00000230: 37f1 0a3e 2ba4 0cbe f0ed 13be e18d 87be
00000240: 9ec9 a63d b43c a53d b753 8ebd c142 4dbe
00000250: 551f 71bd be7c 713d de97 20be 9913 0c3e
00000260: 5a13 d33d 0966 81bd 00ac 3eba 227a 07be
00000270: b3e6 06bc ad2b b0bd 9510 8f3c fc3e e03d
00000280: 8ea1 bcbd b3ad 183e 4a03 563d 42fc 843e
00000290: 9f1c 9a3e b8bd 963c 4781 793e f23c ddbd
000002a0: 97e9 02bd 9fb3 7c3e a58a 0a3e 6c55 253d
000002b0: 0355 25bd 4b78 d03e 4112 5d3e 4de9 a93e
000002c0: b8ec 823e cddc e73d 352a 9d3e bbcc e2bd
000002d0: 91b1 8a3e 4b40 743e 5ba9 9dbc ce80 f23d
000002e0: d4a8 1c3e 4bad a63e 303a 3d3d 1983 043e
000002f0: 97ed 9d3d 88a4 cf3c d464 83bd 2d9b 50be
00000300: 0915 20be c0d4 babb f138 babe 89ad e3bd
00000310: a713 823e 40aa b4bb 8ab2 26be f610 66bd
00000320: c1c0 17bd 83f3 93be 583c d8bc 4359 f8bd
00000330: 3db3 c9bd 5b64 07be d4f3 46bd 44b8 6b3e
00000340: f57a 463d 2816 383e af74 4e3e 12c9 1cbe
00000350: c921 3d3d 7a39 ed3c 8e9c 12be 7925 16be
00000360: c5d3 343e a908 943e 8c00 22be 8aca 1a3e
00000370: 292e 33bd c682 5abe 241b 6bbd 1a95 74be
00000380: b053 d8bc f833 04be 5a57 a53d 42dc ad3e
00000390: 0465 2c3e 763a 16be 3e7b 5d3e 846f fdbd
000003a0: b39b b3bd 7a65 3c3e ea93 28be ca99 18be
000003b0: eb43 e63d 2800 dc3e 400b 8c3e 0909 523e
000003c0: ccee 313e aae7 233e 93fc a33e bd81 153e
000003d0: a531 8b3e e55b 4d3e f3be 413d a0ac 55bc
000003e0: cc38 cabd 3432 763e 202f b0bd 424d bb3e
000003f0: 214d 173e 1cec 253e 2e8a 4c3b b4d1 05bd

encoder.2.bias f4 [16]
0.2849385 0.15680125 0.020841662 -0.14312102 0.054869547 0.22166361 -0.027819365 0.15113068
0.08756407 0.049274534 -0.041650847 0.03956292 -0.07634725 0.09866722 -0.009855422 0.050151236
00000000: 76e3 913e 8290 203e 22bc aa3c 518e 12be
00000010: e4be 603d c9fb 623e 70e5 e3bc 00c2 1a3e
00000020: cb54 b33d 18d4 493d 149a 2abd ba0c 223d
00000030: f25b 9cbd 0a12 ca3d a378 21bc 626b 4d3d

encoder.4.weight f4 [8, 16]
-0.14861213 -0.18937893 -0.027471283 -0.049411304 0.15475784 -0.38611215 0.6501354 -0.18992369
-0.11591231 0.17095494 -0.1846531 -0.085805885 -0.15971386 0.22452386 0.27027008 -0.16931686
-0.33168206 -0.40391728 0.20009072 -0.10436908 0.071735166 -0.03472286 0.38486814 -0.025783433
-0.19532904 0.15813667 0.20407447 -0.26707533 -0.13798442 0.27344066 0.10148973 -0.21600892
0.04383129 0.07040291 0.054204468 -0.11719868 -0.013629767 -0.19741179 0.677061 0.010777044
0.13187031 0.08169094 -0.2054115 0.18234408 -0.19433424 0.40574515 0.4756293 0.13739693
0.09521469 0.32384428 -0.33980125 -0.033936426 -0.05681848 0.3713931 -0.32763872 0.28430247
-0.114382 -0.18461463 -0.027384698 -0.114345476 -0.057591766 -0.38346264 -0.5780283 -0.05911866
0.265741 0.033069234 -0.18505345 -0.18597473 0.28857213 0.15215394 -0.3061284 0.34407857
0.12186965 -0.23760456 0.005170673 0.027384525 0.2295241 -0.27328235 -0.73314476 -0.09048643
-0.27745003 -0.2195771 0.18036972 0.09021376 -0.0076984866 -0.30868348 0.5028896 -0.33013374
0.18366118 0.13284445 -0.061949432 0.19784307 0.084677815 0.024165213 0.39974606 0.08386579
0.029538086 -0.0927946 -0.047829323 -0.0011438743 -0.058490273 0.370053 -0.38720214 -0.006897997
0.032816324 -0.02745819 -0.16638842 0.019590465 0.2040996 -0.33113733 -0.7655099 -0.25197324
0.44847798 0.30550605 -0.21697846 -0.0068858233 -0.17101349 0.23617259 -0.5551982 0.36327812
-0.049100026 0.24304152 0.23327115 0.13629629 -0.14982995 -0.20300493 -0.2652284 -0.22130716
00000000: c72d 18be 8dec 41be 750b e1bc 8263 4abd
00000010: d778 1e3e 7eb0 c5be 466f 263f 5b7b 42be
00000020: 6f63 edbd d00e 2f3e b415 3dbe ffba afbd
00000030: 088c 23be 95e9 653e d760 8a3e 6661 2dbe
00000040: 3bd2 a9be 3fce cebe 95e4 4c3e 75bf d5bd
00000050: e3e9 923d 8f39 0ebd 700d c53e c737 d3bc
00000060: 5604 48be 94ee 213e e6f8 503e 19be 88be
00000070: ca4b 0dbe 6a00 8c3e d9d9 cf3d 7131 5dbe
00000080: 7088 333d 672f 903d 8105 5e3d dd05 f0bd
00000090: 634f 5fbc 5126 4abe df53 2d3f 3392 303c
000000a0: 0309 073e 944d a73d 6457 52be 68b8 3a3e
000000b0: 8eff 46be d4bd cf3e af85 f33e c8b1 0c3e
000000c0: ebff c23d ebce a53e 6efa adbe ec00 0bbd
000000d0: 7fba 68bd 3d27 be3e 43c0 a7be 1890 913e
000000e0: 1c41 eabd 9e0b 3dbe e055 e0bc f62d eabd
000000f0: 58e5 6bbd 3755 c4be aaf9 13bf 6826 72bd
00000100: 340f 883e 9b73 073d a77e 3dbe 2970 3ebe
00000110: babf 933e 3ece 1b3e ddbc 9cbe 112b b03e
00000120: cc96 f93d 9c4e 73be c06e a93b 8355 e03c
00000130: 5e08 6b3e aaeb 8bbe 60af 3bbf f350 b9bd
00000140: ee0d 8ebe d2d8 60be d7b2 383e fec1 b83d
00000150: 9643 fcbb c30b 9ebe 5fbd 003f 4a07 a9be
00000160: ad11 3c3e 6008 083e b0be 7dbd 6097 4a3e
00000170: 906b ad3d 20f6 c53c 84ab cc3e d4c1 ab3d
00000180: dbf9 f13c 180b bebd aee8 43bd 0dee 95ba
00000190: 7f93 6fbd 9677 bd3e 5c3f c6be 9808 e2bb
000001a0: 696a 063d 00f0 e0bc ba61 2abe 2f7c a03c
000001b0: 7cff 503e d58a a9be 75f8 43bf a302 81be
000001c0: e89e e53e 4a6b 9c3e 9a2f 5ebe 79a2 e1bb
000001d0: 291e 2fbe 3ad7 713e 7821 0ebf 97ff b93e
000001e0: 1c1d 49bd e0df 783e a2de 6e3e 4191 0b3e
000001f0: 066d 19be 86e0 4fbe 04cc 87be 589e 62be

encoder.4.bias f4 [8]
-0.23008093 -0.27175024 -0.31080365 0.18490843 0.34413975 -0.24295272 0.2444343 0.05199455
00000000: 569a 6bbe d922 8bbe a821 9fbe a358 3d3e
00000010: 1633 b03e 99c8 78be fc4c 7a3e 3df8 543d

decoder.0.weight f4 [16, 8]
0.024662945 -0.3376847 0.300123 0.18593903 0.09310064 0.3452557 0.07688148 -0.27104434
0.19452801 0.0648382 -0.1766696 0.16792862 -0.05656002 0.2480886 -0.26578668 -0.095002614
-0.13440971 0.28378424 -0.30424386 -0.24757826 0.18465295 0.07225314 0.24075493 -0.17660047
-0.3646733 -0.32275653 -0.38698885 0.48953855 0.21674499 -0.3881196 0.05709552 0.17524906
0.033395156 -0.3894629 0.31992534 -0.2509777 -0.34624857 -0.12641487 -0.23945239 0.17035253
0.11439676 0.09722274 -0.11664236 0.09144843 0.27598295 -0.2655745 0.10745178 0.24557436
-0.21265276 -0.158398 0.19084236 -0.013543474 0.26244974 -0.5275345 -0.03190676 0.5729672
-0.2630179 0.027418684 -0.24289498 0.30946925 -0.1760513 -0.33386925 0.24010342 0.46575865
0.2415868 0.21649341 0.33675164 0.1478529 -0.2278353 -0.2081014 0.21311949 0.008385202
-0.3430993 0.24478868 -0.21915828 -0.038936168 -0.23834543 -0.20678486 0.04354598 0.014926233
-0.32078645 -0.03355278 -0.30901438 -0.34047747 -0.07401754 -0.25033593 -0.2037843 -0.17263454
0.29745606 -0.23645875 -0.14110209 -0.112038784 -0.083745405 0.15221615 0.030985503 -0.17771046
-0.13358569 -0.4684337 -0.05761781 -0.14613311 0.39993912 0.039517477 0.48727933 -0.052797273
-0.19895153 -0.22805957 0.24678488 0.0307683 0.3874148 -0.38637066 0.220877 0.4022851
-0.35982835 -0.38140085 -0.4416345 0.17814788 -0.13534757 -0.13449876 0.042650953 -0.19718288
-0.009298354 0.17265293 -0.28610203 0.16542384 -0.32871535 -0.06976989 0.12790212 -0.082028896
00000000: f209 ca3c 02e5 acbe b9a9 993e cd66 3e3e
00000010: 8cab be3d 5bc5 b03e 0a74 9d3d 53c6 8abe
00000020: 5a32 473e e4c9 843d e0e8 34be 7bf5 2b3e
00000030: 7bab 67bd f00a 7e3e 3115 88be bb90 c2bd
00000040: b3a2 09be 2b4c 913e dac5 9bbe 2885 7dbe
00000050: aa15 3d3e 74f9 933d 7688 763e c1d6 34be
00000060: 75b6 babe 5840 a5be 6723 c6be cca4 fa3e
00000070: 66f2 5d3e 9db7 c6be fedc 693d 7d74 333e
00000080: 5cc9 083d ae67 c7be 41cd a33e 2680 80be
00000090: 7e47 b1be e672 01be 0233 75be e570 2e3e
000000a0: d948 ea3d b71c c73d 31e2 eebd 5149 bb3d
000000b0: a34d 8d3e 62f9 87be ae0f dc3d d877 7b3e
000000c0: a5c1 59be 1633 22be 2e6c 433e 72e5 5dbc
000000d0: d05f 863e 800c 07bf aab0 02bd faad 123f
000000e0: 48aa 86be 269d e03c 76b9 78be c172 9e3e
000000f0: cb46 34be e9f0 aabe acdd 753e eb77 ee3e
00000100: 8862 773e 73b0 5d3e b66a ac3e c066 173e
00000110: a84d 69be 8918 55be ff3b 5a3e 1662 093c
00000120: b6aa afbe e2a9 7a3e 076b 60be 887b 1fbd
00000130: d310 74be 69bf 53be 455d 323d 298d 743c
00000140: 1f3e a4be a46e 09bd 2237 9ebe 1053 aebe
00000150: 8296 97bd 082c 80be d5ac 50be 1cc7 30be
00000160: 294c 983e 3e22 72be 117d 10be 9774 e5bd
00000170: b682 abbd 8dde 1b3e 4fd5 fd3c bbf9 35be
00000180: b0ca 08be 8bd6 efbe a700 6cbd eba3 15be
00000190: d2c4 cc3e 14dd 213d ad7c f93e f441 58bd
000001a0: f3b9 4bbe 7388 69be 2db5 7c3e cd0d fc3c
000001b0: 3c5b c63e 60d2 c5be 952d 623e 50f8 cd3e
000001c0: 6c3b b8be f946 c3be eb1d e2be 666c 363e
000001d0: 8e98 0abe 0bba 09be c4b2 2e3d 4fea 49be
000001e0: 2058 18bc eecb 303e f77b 92be de64 293e
000001f0: 614d a8be 84e3 8ebd c6f8 023e c4fe a7bd

decoder.0.bias f4 [16]
-0.065597564 0.12333962 -0.24695426 0.36534053 0.3031081 0.40974185 0.25131333 0.12757935
-0.038477805 -0.33300105 -0.16800582 0.03369999 0.39110732 -0.06130372 0.3092001 -0.21719652
00000000: 0458 86bd 7c99 fc3d 94e1 7cbe ea0d bb3e
00000010: fc30 9b3e afc9 d13e 24ac 803e 29a4 023e
00000020: e79a 1dbd 1d7f aabe b809 2cbe 0009 0a3d
00000030: 383f c83e 9c19 7bbd 7a4f 9e3e c468 5ebe

decoder.2.weight f4 [32, 16]
0.0048570037 -0.04378161 0.0069507062 -0.1872831 0.06053406 -0.21768694 0.12348684 0.042364087
0.08784911 0.06151871 0.18118414 0.10100603 0.065225355 0.109851986 0.18474938 -0.016274631
0.026780397 0.16713247 0.23701617 -0.04860076 -0.22118717 0.13095988 -0.006193665 0.05256348
-0.08329889 0.2373846 0.07049063 0.17190957 0.123264045 0.00024342004 -0.06978428 0.0047810376
-0.14957836 0.103408016 -0.078220725 0.3648856 0.06042231 -0.0087988945 0.20612733 -0.05700254
-0.113739066 0.19907917 -0.09711057 -0.18632157 0.054449525 0.25727874 0.124842964 -0.10998127
-0.10729489 -0.03436753 0.101981044 -0.10994005 -0.16174167 -0.18230689 -0.17571452 -0.023342937
-0.18573993 -0.19807151 0.09323788 0.0120100975 0.026689291 0.05885461 -0.16471282 0.20024827
-0.040326152 0.08924644 0.1456168 0.30588585 -0.05712374 0.3586906 -0.12020434 0.28686076
-0.09994208 0.06533295 0.093287386 -0.11827772 0.18114494 0.3919359 0.0111534465 0.17084217
-0.19774598 -0.002808988 -0.18492004 -0.20691635 -0.08754525 -0.017558387 0.1917757 -0.21693228
0.22897087 -0.16013885 0.1031408 -0.12566274 0.056198634 0.122729816 -0.031385597 0.15704706
-0.053698987 0.16678266 -0.24587148 0.36287257 -0.2792336 0.048147723 0.05807951 -0.023503754
0.10223867 0.0064633563 -0.06714362 0.17152627 0.36309922 0.13681155 -0.07075225 0.1659188
0.23024866 -0.23382679 -0.042926073 -0.14492576 0.17322515 0.18613037 -0.13917334 -0.16744487
-0.21480149 0.1133478 0.010741142 -0.115685165 -0.011264534 0.025096374 -0.060173105 -0.18028075
-0.24509653 0.17869036 0.21048379 -0.25680012 0.12812415 -0.0838525 0.15492822 0.106954716
0.12304208 0.20138296 -0.21633807 0.018235564 0.08698666 0.10141784 0.08009807 -0.2352846
0.1526297 0.0707081 0.2337887 -0.07860585 0.2636615 0.16098432 0.35975835 0.245918
-0.21679862 -0.32737672 0.20091057 -0.09625718 -0.052076284 0.14823002 0.18050897 -0.08924082
0.25243354 -0.10185788 0.08614558 0.18253806 0.45023137 0.09899893 0.3667278 0.072098985
-0.17730585 0.037753228 0.0445434 0.06122315 0.16128168 0.00011739803 0.23577513 -0.090853184
0.09600796 0.12057034 0.2271294 -0.065481365 0.3573344 -0.16842404 0.1071694 0.1799379
-0.19820724 0.0003442021 -0.20461984 0.18231443 0.078619644 0.06646787 -0.013474294 0.10285357
-0.20964015 0.013769835 0.19472665 -0.24944434 -0.19818398 -0.10913721 -0.039865106 -0.065650284
-0.17669901 0.06422067 -0.08933103 0.011900127 0.11142969 0.0180659 0.14507312 -0.08258149
0.033698797 0.083397925 -0.17204559 -0.23454323 -0.14181194 -0.23537728 0.12537217 0.032898247
-0.23227417 0.0047624707 -0.21137577 -0.13335207 0.0012588799 -0.17070448 -0.08499378 0.18053123
0.09310365 0.14005876 0.077966064 -0.1693571 -0.020201027 0.07502501 -0.25540414 0.11580195
-0.23058188 -0.12555276 0.13245812 -0.15108505 -0.108623885 0.12203375 0.12349748 0.08659056
0.18331043 0.03694714 -0.13975155 0.29423484 0.4098808 0.20261323 0.17068388 0.27264434
-0.17465678 -0.38177276 0.09913137 0.0105843805 0.026776342 -0.050433505 0.029403048 -0.050551385
00000000: 8027 9f3b 5854 33bd c0c2 e33b 24c7 3fbe
00000010: 90f2 773d 53e9 5ebe abe6 fc3d f785 2d3d
00000020: 3cea b33d 0bfb 7b3d 5688 393e 40dc ce3d
00000030: df94 853d 14fa e03d f12e 3d3e 6052 85bc
00000040: 9062 db3c c624 2b3e 5eb4 723e 9711 47bd
00000050: e47e 62be 591a 063e 3af4 cabb ce4c 573d
00000060: 9c98 aabd f314 733e 645d 903d 1009 303e
00000070: dc71 fc3d 923e 7f39 10eb 8ebd 40aa 9c3b
00000080: 122b 19be 95c7 d33d 3032 a0bd 49d2 ba3e
00000090: 627d 773d 3d29 10bc 0b13 533e 7f7b 69bd
000000a0: 07f0 e8bd 69db 4b3e e8e1 c6bd 15cb 3ebe
000000b0: 7706 5f3d 0aba 833e abad ff3d dc3d e1bd
000000c0: 6cbd dbbd f8c4 0cbd 70db d03d 4028 e1bd
000000d0: 9c9f 25be a8ae 3abe 82ee 33be b039 bfbc
000000e0: 9c32 3ebe 42d3 4abe 80f3 be3d 00c6 443c
000000f0: 80a3 da3c 8811 713d 7aaa 28be e20d 4d3e
00000100: 092d 25bd d6c6 b63d 921c 153e 129d 9c3e
00000110: 95fa 69bd 4ba6 b73e b12d f6bd 6adf 923e
00000120: 6fae ccbd 48cd 853d 750d bf3d 973b f2bd
00000130: 0f7e 393e d3ab c83e f2bc 363c 40f1 2e3e
00000140: ec7d 4abe 0017 38bb ae5b 3dbe e1e1 53be
00000150: ed4a b3bd 9bd6 8fbc d960 443e 7f23 5ebe
00000160: 5777 6a3e 70fb 23be 7c3b d33d bcad 00be
00000170: 8a30 663d c559 fb3d 2f8e 00bd f2d0 203e
00000180: 78f3 5bbd 13c9 2a3e bcc5 7bbe 6fca b93e
00000190: b5f7 8ebe 8c36 453d c8e4 6d3d f28a c0bc
000001a0: 8262 d13d 90ca d33b 9882 89bd 95a4 2f3e
000001b0: 24e8 b93e 5418 0c3e 8ee6 90bd 9ee6 293e
000001c0: 4ec6 6b3e 4a70 6fbe 40d3 2fbd 6b67 14be
000001d0: ef61 313e f698 3e3e 7583 0ebe ab76 2bbe
000001e0: ecf4 5bbe e422 e83d 9dfb 2f3c 58ec ecbd
000001f0: e18e 38bc e996 cd3c 1378 76bd 849b 38be
00000200: 96fa 7abe 9bfa 363e 1089 573e 4e7b 83be
00000210: fa32 033e dcba abbd 81a5 1e3e 130b db3d
00000220: 7cfd fb3d 5637 4e3e ba87 5dbe c062 953c
00000230: 1026 b23d 28b4 cf3d 750a a43d 72ee 70be
00000240: f64a 1c3e 69cf 903d 4e66 6f3e 1bfc a0bd
00000250: a4fe 863e 13d9 243e 3f32 b83e eed1 7b3e
00000260: 7500 5ebe ec9d a7be 80bb 4d3e 7c22 c5bd
00000270: f14d 55bd 9cc9 173e 58d7 383e e4c3 b6bd
00000280: f83e 813e dd9a d0bd 186d b03d 42eb 3a3e
00000290: ba84 e63e f3bf ca3d bfc3 bb3e a2a8 933d
000002a0: aa8f 35be 21a3 1a3d 2473 363d 20c5 7a3d
000002b0: 0627 253e 9633 f638 096f 713e 3c11 babd
000002c0: d29f c43d 95ed f63d 9c94 683e 181b 86bd
000002d0: 89f4 b63e 5a77 2cbe a17b db3d a441 383e
000002e0: d7f6 4abe 0676 b439 dd87 51be a2b0 3a3e
000002f0: 5603 a13d 4e20 883d 49c3 5cbc e4a4 d23d
00000300: e8ab 56be e09a 613c 6c66 473e 566e 7fbe
00000310: bef0 4abe 5483 dfbd 9849 23bd a873 86bd
00000320: 96f0 34be 2086 833d 30f3 b6bd c0f8 423c
00000330: 4035 e43d f0fe 933c 0c8e 143e 7c20 a9bd
00000340: c007 0a3d 88cc aa3d b82c 30be 1a2c 70be
00000350: 2637 11be be06 71be 9061 003e 50c0 063d
00000360: 48d9 6dbe 800e 9c3b e472 58be 728d 08be
00000370: 0001 a53a 28cd 2ebe 3811 aebd 2edd 383e
00000380: 20ad be3d 906b 0f3e acac 9f3d f36b 2dbe
00000390: a07c a5bc b6a6 993d 55c4 82be 9329 ed3d
000003a0: a81d 6cbe e790 00be 1aa3 073e 0ab6 1abe
000003b0: 3376 debd d5ec f93d 3fec fc3d 6456 b13d
000003c0: bbb5 3b3e e255 173d 081b 0fbe f3a5 963e
000003d0: e5db d13e d879 4f3e c1c7 2e3e 0a98 8b3e
000003e0: 3ad9 32be b877 c3be 6305 cb3d 1c6a 2d3c
000003f0: 0f5a db3c 5d93 4ebd a9de f03c f80e 4fbd

decoder.2.bias f4 [32]
-0.2055761 -0.24833295 0.08523011 -0.15269786 0.09723509 -0.041571233 -0.015211795 -0.08689014
-0.18367447 0.2784298 -0.11571088 0.1647664 -0.11576778 0.11809486 -0.0849267 0.15143554
0.26799616 -0.1477606 -0.21159655 0.11489963 0.20338601 0.22140145 0.18030812 0.09265308
-0.2026788 0.22209087 0.16906932 -0.06966838 0.264654 0.13570796 0.16037087 0.06438901
00000000: 8b82 52be fe4a 7ebe 208d ae3d d45c 1cbe
00000010: 3123 c73d 9946 2abd e53a 79bc 75f3 b1bd
00000020: 2915 3cbe 5a8e 8e3e d3f9 ecbd 86b8 283e
00000030: a817 edbd b8db f13d 0dee adbd eb11 1b3e
00000040: cb36 893e 8e4e 17be c4ac 58be 7f50 eb3d
00000050: 6c44 503e 10b7 623e b1a2 383e e6c0 bd3d
00000060: 088b 4fbe ca6b 633e 8220 2d3e 4cae 8ebd
00000070: bb80 873e 07f7 0a3e 4338 243e 63de 833d

decoder.4.weight f4 [13, 32]
0.03769222 0.06048036 0.06503725 -0.0014957488 -0.2344088 0.083569594 -0.25197238 -0.026135247
0.17081082 -0.020594148 0.18373427 0.11753042 0.13586809 -0.16505812 -0.0073979218 0.07110017
-0.15053485 -0.057677016 -0.059098437 -0.03402524 -0.022692466 0.09644249 -0.105700836 0.20225094
-0.014976442 -0.15055273 -0.23748279 0.05109079 -0.00057278824 -0.14821391 0.0066980864 -0.2243661
-0.06470858 -0.006259307 -0.34268296 -0.11343158 -0.00068718515 0.034231365 0.031775776 0.048595797
-0.09403654 -0.3247032 -0.2566301 0.10574884 -0.006729394 0.02779597 0.15129764 -0.12661532
-0.06627247 -0.15019983 -0.16053511 -0.1502796 -0.20283711 -0.19417804 -0.10703476 -0.6773573
0.10175945 -0.24867822 -0.008129324 0.123101786 -0.2325833 -0.15370598 -0.08033443 -0.2664084
-0.13301781 0.12656696 0.08943368 0.06447917 0.15074006 0.10216196 0.021512687 -0.089907154
-0.016393734 0.061533302 0.12513857 0.08554338 0.15912645 0.02180992 -0.035822846 -0.15542924
-0.06622666 0.14639057 0.077582166 -0.0048747314 -0.073677614 0.114615135 0.10988328 0.053190757
0.1406536 0.041610226 0.053921193 -0.093835086 -0.09338685 -0.06528827 0.010608029 -0.09008112
0.11415033 0.077367015 -0.17820534 -0.14188637 -0.12776755 0.0113488175 -0.044507474 -0.10087802
-0.06475345 -0.13137843 -0.19533676 0.05836576 0.10696699 -0.04775457 -0.09246192 0.022060404
0.015247796 -0.10393274 -0.125974 -0.19489847 -0.14701933 -0.09142926 -0.029409578 -0.31562594
-0.025226504 -0.29559043 0.0100493925 0.13944621 -0.17038254 -0.1943663 -0.24458158 -0.18215299
-0.04399647 -0.0010178208 -0.15239389 0.0113809705 -0.21029039 -0.04237417 -0.003596193 -0.111517414
0.058578618 0.030515032 -0.21835512 -0.05891431 -0.098758325 0.053037956 0.10892185 -0.025042143
-0.25278214 0.13255902 0.14890246 -0.052638594 -0.20485479 0.19359198 -0.028460456 0.028294833
-0.046866477 -0.21406361 -0.014888992 0.07560043 -0.1009079 -0.2144237 -0.022070324 -0.26481062
0.050264448 0.03305916 0.0005512421 -0.034996554 -0.078497656 -0.15456222 -0.20338257 0.10114308
-0.15512322 -0.3070553 -0.14664008 -0.010428396 0.08743681 -0.06518733 0.102672964 -0.004329701
-0.15790984 -0.09710001 0.010127485 -0.08394056 -0.096507855 -0.33059067 -0.06788988 0.09833577
0.047024667 -0.22927272 -0.043177124 0.05134833 -0.18736707 -0.095271684 -0.31019986 -0.18552436
-0.11867122 0.048832025 -0.22337003 -0.094327256 -0.26089698 -0.109008595 -0.25483596 0.030343458
-0.037664976 0.011418932 -0.420658 0.1085786 -0.13698569 -0.08470425 -0.12984182 -0.18819505
-0.15144874 0.13157095 -0.015652806 -0.039204467 -0.070944354 -0.19773114 -0.07724226 -0.57589805
0.050263777 -0.038184002 -0.034189556 0.16722481 -0.25894347 -0.25843233 -0.10320032 -0.3140568
0.06641323 -0.039121315 -0.13275602 0.13698508 -0.13651247 0.1407193 -0.14993952 -0.14919178
-0.11085035 -0.12602021 -0.3580395 -0.11325365 0.118123755 -0.10405785 -0.12095552 -0.24539326
-0.03760002 -0.104433164 -0.06323479 -0.15549757 -0.16683781 -0.25063637 -0.04283601 -0.57191277
-0.13728689 -0.21831876 0.005872308 -0.1006134 -0.2012473 -0.14093232 -0.28135666 -0.16744351
00000000: 2863 1a3d 41ba 773d 4032 853d 000d c4ba
00000010: dc08 70be 8926 ab3d 8602 81be 9619 d6bc
00000020: 08e9 2e3e 0fb5 a8bc d624 3c3e cab3 f03d
00000030: 0121 0b3e ff04 29be 446a f2bb f79c 913d
00000040: cf25 1abe bc3e 6cbd 3411 72bd 0d5e 0bbd
00000050: 8de5 b9bc a483 c53d ae79 d8bd df1a 4f3e
00000060: c05f 75bc 7f2a 1abe b02e 73be 9444 513d
00000070: 2b27 16ba 63c5 17be 9f7b db3b 3ac0 65be
00000080: ef85 84bd df1a cdbb 2474 afbe d14e e8bd
00000090: 3724 34ba 3036 0c3d 5127 023d 630c 473d
000000a0: 3b96 c0bd 7f3f a6be 0565 83be d992 d83d
000000b0: 4082 dcbb 60b4 e33c c5ed 1a3e 72a7 01be
000000c0: dcb9 87bd fccd 19be 5163 24be e5e2 19be
000000d0: 88b4 4fbe 9cd6 46be 0a35 dbbd 4a67 2dbf
000000e0: 4267 d03d 81a5 7ebe db30 05bc ca1c fc3d
000000f0: 512a 6ebe 1a65 1dbe 6186 a4bd af66 88be
00000100: d235 08be c59a 013e 0129 b73d a80d 843d
00000110: 9a5b 1a3e 4a3a d13d 603b b03c 3e21 b8bd
00000120: 274c 86bc 580a 7c3d 5324 003e 5e31 af3d
00000130: 0bf2 223e b8aa b23c faba 12bd d828 1fbe
00000140: d8a1 87bd 69e7 153e 66e3 9e3d 36bc 9fbb
00000150: 4ae4 96bd 57bb ea3d 7c0a e13d 8dde 593d
00000160: 7f07 103e 7c6f 2a3d 78dc 5c3d 9c2c c0bd
00000170: 9b41 bfbd dbb5 85bd 4ccd 2d3c 737c b8bd
00000180: a6c7 e93d 9972 9e3d 767b 36be a94a 11be
00000190: 7fd5 02be 64f0 393c 784d 36bd 2399 cebd
000001a0: 759d 84bd 1188 06be 5c06 48be ef10 6f3d
000001b0: 8211 db3d 4c9a 43bd ad5c bdbd 05b8 b43c
000001c0: e4d1 793c b0da d4bd 54ff 00be 7793 47be
000001d0: 3c8c 16be 443f bbbd 5bec f0bc b999 a1be
000001e0: d0a7 cebc a157 97be 35a6 243c fdca 0e3e
000001f0: c378 2ebe f607 47be 9873 7abe 5086 3abe
00000200: a435 34bd 6668 85ba 250d 1cbe 4077 3a3c
00000210: 5d56 57be 8a90 2dbd 1bae 6bbb 3e63 e4bd
00000220: 22f0 6f3d a9fa f93c 7c98 5fbe 2250 71bd
00000230: ce41 cabd 543e 593d 6b12 df3d 2e25 cdbc
00000240: a96c 81be 8dbd 073e e379 183e 919b 57bd
00000250: 74c5 51be fa3c 463e e725 e9bc 91ca e73c
00000260: 10f7 3fbd 7e33 5bbe f5f0 73bc 66d4 9a3d
00000270: cda8 cebd e391 5bbe d3cc b4bc 4295 87be
00000280: 18e2 4d3d 0b69 073d 3b81 103a 8c58 0fbd
00000290: 61c3 a0bd 8f45 1ebe 8543 50be 1a24 cf3d
000002a0: 9fd8 1ebe 5a36 9dbe d128 16be dddb 2abc
000002b0: 1212 b33d ef80 85bd 3446 d23d 2ae0 8dbb
000002c0: 1eb3 21be 5fdc c6bd c0ed 253c 07e9 abbd
000002d0: e9a5 c5bd 2e43 a9be d909 8bbd 4464 c93d
000002e0: f09c 403d 78c6 6abe 7fda 30bd a052 523d
000002f0: 27dd 3fbe cd1d c3bd 84d2 9ebe 19fa 3dbe
00000300: e609 f3bd 1704 483d 1dbb 64be a62e c1bd
00000310: 4a94 85be e63f dfbd dc79 82be d892 f83c
00000320: 9746 1abd 7916 3b3c 7c60 d7be 755e de3d
00000330: fa45 0cbe 6c79 adbd 41f5 04be 34b6 40be
00000340: 6115 1bbe 89ba 063e 503a 80bc dd94 20bd
00000350: 464b 91bd 087a 4abe 3131 9ebd 0e6e 13bf
00000360: 64e1 4d3d d466 1cbd 590a 0cbd fb3c 2b3e
00000370: 3d94 84be 3e51 84be b05a d3bd 0ecc a0be
00000380: a903 883d ac3d 20bd 32f1 07be d145 0c3e
00000390: edc9 0bbe b818 103e bf89 19be bbc5 18be
000003a0: 8205 e3bd 710b 01be f450 b7be 88f1 e7bd
000003b0: deea f13d 481c d5bd 87b7 f7bd 5f48 7bbe
000003c0: 7b02 1abd 0ee1 d5bd 3e81 81bd c13a 1fbe
000003d0: 88d7 2abe 6953 80be d074 2fbd e068 12bf
000003e0: ef94 0cbe f48e 5fbe 7d6c c03b 660e cebd
000003f0: c613 4ebe 9050 10be fb0d 90be 5076 2bbe

decoder.4.bias f4 [13]
-0.061721258 -0.26450422 -0.03308853 -0.074658476 -0.16000667 -0.0106205335 -0.232656 0.011682653
-0.118600994 -0.031423792 -0.18859635 -0.11355133 0.07919936
00000000: 6ecf 7cbd 196d 87be d787 07bd 8be6 98bd
00000010: cad8 23be bf01 2ebc 603d 6ebe 9968 3f3c
00000020: 14e5 f2bd 3cb6 00bd 671f 41be 9a8d e8bd
00000030: 4633 a23d
